作业/作业1/191240076_1_v2/res/mlp.pth (torch, 23648 bytes, 20 tensors)

layer1.0.weight f4 [64, 16]
000000 10 7b 97 bd f8 7b 55 3e 3a a7 42 bf fe 7c f0 3f
       -0.07396519 0.20848072 -0.7603642 1.8788145
000010 6d b8 c4 be b5 c0 55 be a4 79 b8 3f 99 73 39 be
       -0.38421956 -0.20874293 1.4412122 -0.18110503
000020 29 13 a9 be 2a 94 b8 be 20 78 3a be 22 23 f0 3b
       -0.3302243 -0.3605054 -0.18209887 0.007328407
000030 76 23 4e bd e6 9b 40 bf 16 55 8a bd fb f3 a8 3e
       -0.050326787 -0.7523788 -0.0675451 0.32998642
000040 b7 4d 9f 3d 0d 42 82 3c d7 8e 08 bd 90 49 48 bb
       0.07778495 0.015900636 -0.033339348 -0.0030561425
000050 fa 12 4d 3d 39 78 e2 3c c8 0f 8c bd 64 8e 5b 3d
       0.050066926 0.027645217 -0.068389475 0.05360259
000060 53 6c dc bc e3 40 56 bb 2b 41 c1 3c 1a 0c 5e bc
       -0.026907122 -0.0032692484 0.023590645 -0.01355269
000070 d2 46 22 bd 44 5a 5d bb c7 37 f1 3d 16 64 e7 bc
       -0.03961832 -0.0033775726 0.11778217 -0.028245967
000080 1c 44 f4 bc 4e 32 c3 bc 1e 2d dd bd ff 42 7d bc
       -0.029817633 -0.023827698 -0.10799621 -0.015457868
000090 ed 06 7c bd 02 0c 68 bd bf b0 d4 3d c0 77 97 bd
       -0.061530042 -0.056652077 0.10385274 -0.073958874
0000a0 d1 34 f1 3d 74 97 03 bd 05 52 fd 3c f6 06 34 bd
       0.11777652 -0.03212686 0.030922899 -0.04395195
0000b0 57 23 e5 bc 75 d6 5e 3d d4 90 24 3b 84 03 0c 3e
       -0.027970953 0.05440374 0.0025110738 0.13673216
0000c0 32 e3 79 3d 84 a5 5d bf ad d7 90 3e 3c fd ec 3c
       0.061007686 -0.8658068 0.28289548 0.028929345
0000d0 09 53 b5 3e d4 4b a9 bd 96 a0 38 be 23 b8 20 3f
       0.35414913 -0.08266416 -0.18030009 0.6278097
0000e0 70 58 9b be c7 e2 1b be 7c 9d 04 be c5 5c 8c bf
       -0.3034091 -0.15223227 -0.129507 -1.0965811
0000f0 9b 26 38 3f 6c 9c ed be 78 49 94 be 29 f4 5b 3f
       0.7193391 -0.46408403 -0.28962302 0.85919434
000100 12 91 3b 3c 97 5e 26 be b3 6a 26 3e f5 b3 be 3e
       0.011448162 -0.1624702 0.1625164 0.3724667
000110 00 d8 19 3e 7d fd 1b 3e c3 ef 8c be fb 53 6a 3d
       0.15023804 0.15233417 -0.27526674 0.057208996
000120 12 92 cf bd 93 92 03 bf 50 f5 01 3f 9c b3 ea be
       -0.101352826 -0.5139553 0.5076494 -0.45840156
000130 0a f2 cb 3c 75 d1 87 bc 04 b2 09 3f 0f 85 54 bd
       0.024895687 -0.01657937 0.53787255 -0.051884707
000140 87 3d 1c b3 8c fe cd aa 7e 3c 99 b2 ad f6 4d a9
       -3.637754e-08 -3.6591943e-13 -1.7839053e-08 -4.57331e-14
000150 08 63 b0 30 54 2e 7e 2d a1 ca 47 33 f7 50 0e 33
       1.2833832e-09 1.4448515e-11 4.6517588e-08 3.313559e-08
000160 d8 9f 27 33 26 8b 68 32 22 8f 08 32 9f 56 35 ad
       3.9028095e-08 1.3535816e-08 7.9487865e-09 -1.03078926e-11
000170 db 45 04 2f e1 a4 98 ac 41 e3 48 36 90 c8 14 af
       1.2030148e-10 -4.338405e-12 2.9934602e-06 -1.3531776e-10
000180 07 0c da be 94 12 28 bd f7 4a 22 3e 99 fe 5c 3e
       -0.425873 -0.041033342 0.1584891 0.21581496
000190 4c 65 58 bb 8b 3c 4c 3e b8 42 ef 3a 0e a1 3f be
       -0.0033019362 0.1994497 0.0018254137 -0.18713781
0001a0 3e 4c fa 3d 2f 22 07 bf 74 8e ac 3e 2a ee d4 be
       0.12221573 -0.52786535 0.33702433 -0.41587955
0001b0 2e 16 9c 3d d5 0d 78 bd f2 3e de 3e bf ac 34 3e
       0.07621418 -0.060560066 0.43407398 0.17644022
0001c0 83 8e 85 3f 06 c2 06 bd b0 0f 6e be a7 04 53 3d
       1.0434116 -0.03289988 -0.23248172 0.05151811
0001d0 9f ea 0c be c0 c1 2e 3c a1 d5 3b be 5b ca a9 be
       -0.13761376 0.010666311 -0.18343212 -0.33162197
0001e0 85 dd 65 3e f5 2a 7f 3f 79 b7 08 bf 73 c7 69 3e
       0.22447784 0.9967492 -0.5340496 0.2282999
0001f0 e3 b4 94 be f8 d4 2c 3e b4 88 57 bf 44 c5 e6 be
       -0.29044256 0.16878116 -0.8419297 -0.45072377
000200 ff 9d d6 be 4a a4 4f 3c 03 0b 2b be 18 5e fd be
       -0.41917416 0.012673447 -0.1670342 -0.4948585
000210 db ba bc 3e b8 85 c1 3d ab 76 0b 3e e1 c1 91 3e
       0.3686131 0.09449333 0.13619487 0.2846823
000220 fe cd 03 3f b0 4a 94 3e 57 1a 85 be 53 b4 ab 3c
       0.51486194 0.28963232 -0.25996658 0.020960009
000230 0c 7e ce bf 9f c7 8c 3f 5e b5 93 3f 99 2b da bd
       -1.6132216 1.099842 1.1539724 -0.10652847
000240 f1 de 0e 3e 9a f5 cd 3e 99 82 22 bc 9f ee c0 be
       0.13952233 0.40226442 -0.009918832 -0.37682053
000250 44 23 ac 3e 75 c2 b2 3d 1d 75 f1 3d dc 01 77 3e
       0.33620656 0.08728496 0.11789916 0.24121803
000260 7e 9a c6 bc db c0 30 3d 47 78 00 3f 54 b6 6e bd
       -0.02424359 0.04315267 0.5018353 -0.05827935
000270 76 4c 19 3e da 7e 5e be cc a3 9a 3e 6f 31 da be
       0.14970574 -0.21728078 0.30203092 -0.4261584
000280 0f bf 86 1a 5f e9 2b 1d 37 c1 e9 93 fb 67 28 10
       5.572977e-23 2.2752312e-21 -5.9007994e-27 3.3212262e-29
000290 dd 9a d8 9f c8 cc 0c 91 f4 a1 88 9e 91 0e 63 98
       -9.173576e-20 -1.1107156e-28 -1.4466542e-20 -2.9346417e-24
0002a0 82 17 30 1b 47 27 33 9b 91 fe 77 1e fc 64 b4 1a
       1.4565975e-22 -1.4819224e-22 1.3128714e-20 7.4609404e-23
0002b0 49 85 50 12 80 bf 29 81 ec ec 7b a4 6e cb 83 1b
       6.5797514e-28 -3.1177792e-38 -5.462763e-17 2.1803595e-22
0002c0 2f f2 e3 bb 5f eb 84 bb 39 0a 9c 3c a7 f3 a8 3b
       -0.006956361 -0.0040563787 0.019047843 0.0051559987
0002d0 8b 0a 88 3c 7a d3 3a 3b 54 e4 95 bc 44 85 8c 3c
       0.01660659 0.0028507398 -0.018297352 0.01715339
0002e0 27 6e 45 bc 5c e7 6b 3c 6e 69 48 3b 99 a4 09 bd
       -0.012050188 0.014398422 0.003058042 -0.03360424
0002f0 4f 35 99 bb a4 f9 23 bc 16 d1 0f bd 7f c1 7f bc
       -0.0046755443 -0.010008249 -0.03511151 -0.015610098
000300 3b f2 22 3f 8a e9 b6 be 54 32 21 3f d6 96 fc bd
       0.63650864 -0.3572505 0.6296742 -0.12333457
000310 aa 78 fc be da f5 41 3e c0 b3 9d be f0 85 9a 3e
       -0.4931081 0.18941441 -0.308012 0.3018031
000320 7b 6f d6 bd ad 8a 65 be 68 2d fc 3e c9 6b 24 be
       -0.10470482 -0.22416182 0.49253392 -0.16056742
000330 1e 09 bf 3e 3f bf 49 bd 34 b3 a9 bd a3 c2 22 bd
       0.37311643 -0.049254652 -0.082861334 -0.0397364
000340 89 aa 4d be c5 ec 94 bf fa 6f 78 3e 7a 36 a4 3e
       -0.20084585 -1.1634756 0.24261466 0.32072812
000350 b6 09 9b 3c 7c c1 8e 3e ae c9 04 3f c1 3b 28 bf
       0.018925529 0.27881992 0.5187024 -0.6571618
000360 c0 4f 88 bd 58 b4 51 3e 05 31 f1 3d 95 16 02 3e
       -0.06655836 0.20478952 0.11776928 0.12703927
000370 6d 19 1f bc 55 a7 02 c0 c1 58 6f 3d 5a 25 82 bf
       -0.009710652 -2.0414631 0.05843425 -1.0167649
000380 8f 38 15 bf d3 80 c2 3e fd 50 d3 3e d9 e4 31 3f
       -0.58289427 0.3798891 0.41272727 0.6948982
000390 2c 04 81 3d 0e 2b fb 3e 58 21 cf be 29 2a b0 be
       0.06299624 0.49056286 -0.40455127 -0.34407166
0003a0 0a 91 aa 3e d0 4f 44 bf a9 7f 79 3f 51 8f a2 3e
       0.3331378 -0.76684284 0.9746042 0.31749967
0003b0 52 d8 40 3f ca 73 44 bd 61 a5 b7 3e cc 70 f9 bd
       0.7533008 -0.047961988 0.35868362 -0.121797174
0003c0 f1 ca 5b bb 12 fd 06 bb 3e 36 44 bc c7 2d d0 bb
       -0.003353771 -0.002059762 -0.011975823 -0.0063531133
0003d0 75 0d 78 bb 43 97 fd b9 2c 60 32 bb 62 28 e4 3b
       -0.0037849818 -0.0004836862 -0.0027217967 0.006962822
0003e0 2d 61 d3 bb ac 7b 55 3c 23 7a 71 3d c9 d7 f5 bb
       -0.0064507932 0.013029974 0.05895437 -0.0075025302
0003f0 c9 0c ba 3b c2 0b 4a 3b ae ca ab 3b 2f df f9 bb
       0.0056777936 0.0030829762 0.005242667 -0.0076254825

layer1.0.bias f4 [64]
000000 33 4b a3 39 a8 93 df b5 38 20 14 33 39 e1 a6 b8
       0.0003114581 -1.6657768e-06 3.4488238e-08 -7.957448e-05
000010 68 54 04 38 dc 9e e6 33 cc 67 6a b7 fa 9b e2 38
       3.1549862e-05 1.0739106e-07 -1.3971654e-05 0.00010805573
000020 40 d5 11 b8 98 76 aa 34 4a c5 05 2d 12 57 81 af
       -3.47693e-05 3.1751256e-07 7.603982e-12 -2.352683e-10
000030 ba bc 3a 3a 4d 54 9b b8 c8 19 f6 b7 46 4e f9 32
       0.00071234594 -7.406678e-05 -2.933749e-05 2.902301e-08
000040 a2 b7 af b7 32 1f 5f 36 6e c7 0b b9 d0 dc 03 37
       -2.0947136e-05 3.3247748e-06 -0.00013330366 7.85962e-06
000050 dc e7 3e 37 e0 00 f1 38 9c e5 76 b3 60 c6 69 b9
       1.13788665e-05 0.000114919385 -5.7485167e-08 -0.00022294512
000060 6e 69 59 b8 86 a8 83 b9 db 85 56 38 82 cb 10 37
       -5.183502e-05 -0.00025111827 5.114624e-05 8.630452e-06
000070 14 c0 f6 39 f0 32 3b b2 64 f3 8c 2b d0 74 2b b4
       0.00047063886 -1.0896414e-08 1.0015153e-12 -1.5968112e-07
000080 af 8a 85 b7 26 d1 64 b8 a4 29 8b b7 48 23 6c b9
       -1.5919415e-05 -5.455422e-05 -1.6589482e-05 -0.00022519857
000090 7c 76 a0 38 2b 97 9e 36 c4 01 e8 36 2e d3 03 b7
       7.651464e-05 4.726365e-06 6.9143443e-06 -7.857378e-06
0000a0 ac 2f 18 38 44 26 de b1 e1 77 af b8 ca dd 9d b6
       3.6284022e-05 -6.4654007e-09 -8.3669795e-05 -4.7047843e-06
0000b0 c9 84 cb 38 08 c9 09 34 c6 a6 cd b7 90 14 a0 37
       9.7045275e-05 1.2832254e-07 -2.4515564e-05 1.9083061e-05
0000c0 c5 d8 c2 b9 6e 4d 73 37 e9 38 9d b8 1c cf b1 b1
       -0.0003716407 1.4501957e-05 -7.496944e-05 -5.1749236e-09
0000d0 eb 02 17 3a bf a1 f5 b5 1f 7b a8 38 76 3e ca b7
       0.00057606277 -1.8300997e-06 8.033797e-05 -2.4109362e-05
0000e0 c4 af 03 b7 14 a3 6a 39 d9 77 c2 37 1a 6c 45 38
       -7.849132e-06 0.0002237673 2.318241e-05 4.7069138e-05
0000f0 2c a7 14 b7 56 0c 5c 31 fa e9 ad 39 6c ac ec 37
       -8.86041e-06 3.2021226e-09 0.00033171457 2.8213683e-05

layer1.1.weight f4 [64]
000000 3f 20 92 3f 2b bb 55 3d 7e 18 31 3e 52 ed 8f 3f
       1.1416091 0.05218045 0.172945 1.12443
000010 c6 25 ea 3e d7 83 db 38 16 76 c7 3e 50 f4 4e 3f
       0.45731944 0.00010467291 0.3895728 0.8084154
000020 07 89 9c 3f 09 aa 5b 3e 05 1b 5c 32 33 96 a0 3a
       1.2229317 0.21451582 1.2811829e-08 0.0012251794
000030 25 a3 17 3f 7b a3 d1 3f 70 3d 6f 3f 89 c5 93 3d
       0.59233314 1.6378015 0.9345312 0.07215411
000040 a7 6b a3 3f 70 69 29 3f 09 4d 6d 3f 40 c4 bc 3d
       1.2767228 0.6617651 0.9269567 0.09217119
000050 2d 71 8b 3f f8 98 73 3f a4 94 08 3f 96 76 a6 3f
       1.0893914 0.95155287 0.5335181 1.300494
000060 2c a9 5b 3f 59 c9 f7 3e 99 ac 36 3f 4d 63 11 3f
       0.8580501 0.48395804 0.71357113 0.56792146
000070 1b c0 5f 3f 1b ac 29 3d e8 f3 1a 33 1f 88 82 36
       0.87402505 0.0414239 3.607775e-08 3.8901485e-06
000080 63 e7 3a 3f 0b 53 d0 3f 5d 36 5c 3f 9d 38 a6 3f
       0.7300932 1.6275343 0.8602045 1.2986027
000090 ac e2 11 3f dd 7c 16 3f c4 69 44 3f d2 cb 46 3f
       0.569865 0.58784276 0.76723886 0.77654755
0000a0 b6 63 73 3f 1e 92 7f 3b 10 2d 7b 3f e0 e6 d2 3e
       0.9507402 0.0038997005 0.98115635 0.4119177
0000b0 00 9e 53 3f 36 48 24 37 2f 5f 17 3f b8 cf 60 3f
       0.82662964 9.791975e-06 0.59129614 0.87816954
0000c0 5f bd 75 3f d1 8c 26 3e 09 5b 69 3f 53 0f 01 bd
       0.9599208 0.16264655 0.91154534 -0.031508755
0000d0 b1 a3 2b 3f 82 4a 62 3f ad ef c0 3f f5 e4 23 3f
       0.6704665 0.8839494 1.5073143 0.64021236
0000e0 a0 b9 2d 3f 0a 62 35 3f e6 1a b6 3f 02 a4 91 3f
       0.67861366 0.7085272 1.4226959 1.1378176
0000f0 f0 db 30 3f cb bf 82 3b 94 a7 95 3f 7f b5 93 3c
       0.690856 0.0039901487 1.1691766 0.01803088

layer1.1.bias f4 [64]
000000 43 10 fa bd 01 18 13 be f4 7e 90 be 14 b6 38 bf
       -0.12210133 -0.14364626 -0.28221858 -0.7215283
000010 b5 fd ce be 40 4b f6 b8 0c e3 3d be f1 ff 2f bf
       -0.40427938 -0.000117442105 -0.18543643 -0.6874991
000020 04 e4 25 3e 8a 8c d1 be a6 0c a1 b1 1c a0 06 bd
       0.16200262 -0.40927535 -4.6871547e-09 -0.032867536
000030 2b 65 8c be 64 30 a4 be 2b b9 cd be 85 7c 13 be
       -0.27420935 -0.3206817 -0.40180334 -0.14402969
000040 8e af c2 be a8 16 48 bf 61 3f 73 bd 81 18 32 be
       -0.38024563 -0.7815957 -0.059386615 -0.1739216
000050 e7 34 d2 be ae 86 42 be 58 9f 54 be a2 b0 56 be
       -0.41055986 -0.18996689 -0.2076391 -0.20965818
000060 d8 54 71 be 20 1b be be c6 5c b4 3d 01 6c 3d bf
       -0.23567522 -0.3713007 0.08806758 -0.73992926
000070 63 6c 58 be 37 26 95 bd c9 8a 81 b1 a8 2e 77 b5
       -0.21135096 -0.072826795 -3.770172e-09 -9.2082564e-07
000080 6f 36 c2 be 5c 70 d0 be cc 40 76 be 42 7e 3d bf
       -0.37932155 -0.40710723 -0.24048156 -0.7402078
000090 78 b4 6e be 3d ea 82 be 6c 9c c8 be de 84 7d be
       -0.23311031 -0.25569335 -0.3918184 -0.24757716
0000a0 4e a6 69 be de 72 ab bb f5 22 f5 be 7c 42 d7 be
       -0.22817346 -0.005232199 -0.47878233 -0.4204291
0000b0 85 69 78 be 54 94 ec b7 19 d1 9b bd 32 38 2e 3b
       -0.24259003 -2.8202463e-05 -0.076082416 0.0026583788
0000c0 02 64 e4 be 62 d7 f5 bd e4 6b 9e be a7 f4 28 be
       -0.4460755 -0.12003972 -0.3094169 -0.16499577
0000d0 96 d8 16 be d9 d6 64 3c 49 a8 d9 be 7f c8 9a be
       -0.14731058 0.013967239 -0.42511204 -0.3023109
0000e0 0e a7 0c 3e 83 5f 5f be c5 63 a7 bd 49 60 a5 be
       0.13735601 -0.21813779 -0.081733264 -0.32300022
0000f0 59 69 2f be dd 6a 11 bc 51 30 35 3e 10 e1 0f be
       -0.1713003 -0.008875576 0.17694212 -0.14050698

layer1.1.running_mean f4 [64]
000000 65 f0 da 42 2a ec f1 40 28 e3 36 c0 ff 93 80 c2
       109.46952 7.5600786 -2.8576145 -64.289055
000010 51 77 34 42 93 2b 1f 39 fc 75 1b 42 4c fe 21 c2
       45.11652 0.00015179654 38.86522 -40.498337
000020 ad 6f 1a 41 55 b6 9a 42 c2 2c ea a9 38 d1 22 c0
       9.652265 77.35612 -1.0399452e-13 -2.5440197
000030 2e bf 93 41 00 97 12 c3 d6 b6 48 43 d0 cd 1f 40
       18.46835 -146.58984 200.7142 2.4969368
000040 31 12 31 43 ae 66 c0 c2 b5 49 e2 c2 8c 11 87 c0
       177.07106 -96.20055 -113.14396 -4.220892
000050 c1 9f 87 42 f7 22 32 43 da ad ec c1 f0 49 1f 43
       67.81202 178.13658 -29.584888 159.28882
000060 10 ad 4f c3 c8 44 ad bf 8e 28 ca 40 84 27 e8 42
       -207.67603 -1.3536615 6.3174505 116.07718
000070 a4 5d 9e 41 6e 2b 46 bf 8b 83 df 30 0f 3f 8d 31
       19.795723 -0.7741002 1.6262772e-09 4.110809e-09
000080 50 31 8e 42 02 47 ca c1 94 43 d3 c1 96 bc ed c0
       71.09631 -25.284672 -26.407997 -7.4292707
000090 04 0f 1a 41 a3 86 c3 c1 b9 20 58 c2 f3 e4 6a 43
       9.628666 -24.44074 -54.031956 234.89433
0000a0 53 1d 0b c1 c1 36 92 bb 0c 86 58 42 5a 6b e7 41
       -8.694659 -0.0044620936 54.130905 28.927418
0000b0 e9 83 d8 c1 9a 9b 84 b4 88 e5 ea c0 ff 7b 1e c3
       -27.06441 -2.470013e-07 -7.340519 -158.48436
0000c0 41 cb 4b 41 80 90 56 41 f8 4f 59 41 f9 ee 44 40
       12.737123 13.410278 13.582024 3.0770857
0000d0 66 7c a0 42 2e 97 83 43 12 ae 9e 43 57 f5 11 c2
       80.242966 263.1811 317.35992 -36.48959
0000e0 ee 14 22 c3 67 7e 53 c2 df de bb 41 9b ca 29 c3
       -162.08176 -52.87344 23.483824 -169.79143
0000f0 e9 3f fa c1 0a 3c 77 be 53 5b e4 41 83 71 23 3f
       -31.281206 -0.24143997 28.544592 0.6384508

layer1.1.running_var f4 [64]
000000 9c bc 52 45 ff 2b 03 42 27 20 1a 43 8c 2a 52 45
       3371.788 32.792965 154.1256 3362.6592
000010 af 21 97 44 c7 48 98 32 ae 8c 77 44 ec 7e 76 45
       1209.0526 1.7728224e-08 990.1981 3943.9326
000020 5d 3c f1 45 f2 43 94 44 10 4a 37 0f 8f 24 27 41
       7719.5454 1186.1233 9.0368605e-30 10.446425
000030 70 db 3a 45 e6 86 31 46 b6 0a 2f 45 7f cd a6 40
       2989.7148 11361.725 2800.6694 5.212585
000040 56 19 35 46 4e 1d da 44 6d 1b 57 45 bf fa a3 42
       11590.334 1744.9158 3441.714 81.98974
000050 2d 8d fb 44 22 67 4f 45 cd cd 68 45 05 57 14 46
       2012.4117 3318.4458 3724.8625 9493.755
000060 0b f7 35 45 ae 80 a5 44 b3 8e 6c 45 1b 97 da 44
       2911.4402 1324.0212 3784.9187 1748.722
000070 0b dc 25 45 6a 14 f5 3f b0 21 31 22 5b 9c cb 25
       2653.7527 1.9146855 2.4005807e-18 3.5320837e-16
000080 94 d9 c4 44 09 80 ab 45 62 55 40 45 b5 8d 8b 45
       1574.7993 5488.0044 3077.3364 4465.7134
000090 08 98 4d 45 3a 8e 44 45 69 49 63 45 0e 3d 07 45
       3289.502 3144.8892 3636.5881 2163.816
0000a0 06 8a 61 45 23 9e ac 37 25 77 27 45 f3 ad 5b 44
       3608.6265 2.0577636e-05 2679.4465 878.71796
0000b0 aa db 08 45 94 7b 4b 2a 67 69 60 45 a3 b4 a2 45
       2189.729 1.8072897e-13 3590.5876 5206.5796
0000c0 ab ff 71 45 0f cc a7 44 b5 a9 b2 44 df 59 dc 41
       3871.9792 1342.3768 1429.3033 27.543882
0000d0 55 70 b5 45 3f 1a 29 45 c7 3d d2 45 7f 4a 21 45
       5806.0415 2705.6404 6727.722 2580.656
0000e0 cb 51 a4 45 b0 b7 49 45 6d 3d 00 46 4c 5c 73 45
       5258.224 3227.4805 8207.356 3893.7686
0000f0 e7 41 11 45 5e a1 8b 3b eb cf 08 46 fc d8 97 41
       2324.119 0.00426118 8755.9795 18.98095

layer2.0.weight f4 [32, 64]
000000 4a 83 e5 be 81 b0 8a b7 d5 d3 99 3d 33 0e 56 3e
       -0.44826728 -1.6533073e-05 0.07511107 0.20903854
000010 9d 6a 58 3e 14 aa c2 2d 83 2c ca 3e 87 04 e6 3e
       0.2113442 2.2130776e-11 0.39487085 0.4492533
000020 d2 58 07 3f d1 5d 07 3d 64 8d 77 27 e1 26 a8 bb
       0.52869904 0.033048455 3.4354784e-15 -0.005131588
000030 88 ee eb 3d 57 53 8a be 60 69 4d 3f df 2c 04 b8
       0.115201056 -0.27016708 0.80238914 -3.1513042e-05
000040 0c 9f 29 3e 75 90 eb be 41 4b 79 bf e1 6b b0 bc
       0.16564578 -0.4600865 -0.97380453 -0.021535816
000050 73 de a9 3e cf 67 1c bf 9c d3 bc be 51 b8 1c 3e
       0.33177528 -0.610959 -0.36880195 0.15304686
000060 b0 6d a9 3e 7a e6 a5 3e 92 4c 42 3e c0 ba 1f be
       0.33091497 0.32402402 0.18974522 -0.15598583
000070 02 ac b2 be ad 61 d7 3b 2f 3a 71 a6 c2 da c5 a9
       -0.34896857 0.006572923 -8.3692525e-16 -8.786506e-14
000080 ce a5 20 3d 17 d4 6c 3e b7 f5 30 3e 08 21 8e 3e
       0.039220624 0.23127781 0.17281233 0.27759576
000090 c7 f8 0f be 5e c3 95 3d 44 3e 07 3e 50 3b 25 3e
       -0.14059745 0.07312654 0.13207346 0.16135907
0000a0 52 81 0a bd 9a 43 23 b5 4f a9 87 be 32 12 bb be
       -0.033814736 -6.0820605e-07 -0.2649636 -0.3653732
0000b0 77 7b 5c bd 3e 73 8f a6 1c 7b 39 3e 26 53 08 bf
       -0.053828683 -9.953855e-16 0.18113369 -0.53251874
0000c0 3c 60 23 bf f6 43 c5 3d 64 d7 d0 bb e2 09 23 bb
       -0.63818717 0.09632103 -0.006373333 -0.0024877717
0000d0 c6 a8 e8 3e 64 82 80 be 1b 68 a9 3e fb b5 1b be
       0.45441264 -0.2509948 0.3308724 -0.15206139
0000e0 88 30 bc 3d 83 a3 bf 3e b3 8e 60 3e 89 d4 fb 3e
       0.09188944 0.37429437 0.21929435 0.4918559
0000f0 17 9e 91 be ee 5f 2c 37 d4 cc 0a bf df 96 49 bb
       -0.28440925 1.0274334e-05 -0.5421879 -0.0030760092
000100 58 ce 96 39 8f 67 4d 33 f4 65 3e 34 2a ac a1 b4
       0.00028763968 4.7824468e-08 1.7732219e-07 -3.0113853e-07
000110 35 0b 5d b4 d3 0e 02 00 a6 bf 13 b2 0e cc 89 b7
       -2.0586306e-07 1.88989e-40 -8.600102e-09 -1.6426693e-05
000120 94 fb 2d 39 c3 6c d6 33 67 57 01 00 49 67 e0 b2
       0.00016592286 9.984935e-08 1.2319e-40 -2.6124e-08
000130 81 1c 83 b7 40 d5 ea b7 80 b5 3e b7 14 03 19 aa
       -1.562969e-05 -2.7994276e-05 -1.1367141e-05 -1.3590198e-13
000140 1f ad f9 b9 f0 68 e9 2e 94 29 0d 38 3a 2c fc 31
       -0.00047621966 1.0614254e-10 3.3655742e-05 7.3391933e-09
000150 d6 ee fd b6 8c 97 9f b8 aa cc 9e 34 a4 cb 0f ba
       -7.5677917e-06 -7.6099386e-05 2.9578706e-07 -0.0005485362
000160 dd 3f b2 b8 5c 4a b0 31 fd 74 8e 38 27 69 09 b5
       -8.499597e-05 5.130728e-09 6.7928784e-05 -5.1189494e-07
000170 16 c2 90 35 47 7a 73 ab 34 d3 07 00 85 d5 07 00
       1.0785323e-06 -8.6500636e-13 7.18614e-40 7.19445e-40
000180 eb 4a e4 b6 c7 9e a4 b8 6e 97 11 36 f7 95 8b 35
       -6.803651e-06 -7.849704e-05 2.1694827e-06 1.0399953e-06
000190 c3 48 82 b6 09 a7 93 36 3f 31 14 37 9e 09 c6 b7
       -3.8827725e-06 4.400387e-06 8.832953e-06 -2.3607918e-05
0001a0 5b eb 3f b6 a2 0c c3 26 e8 3a e8 38 89 c5 d1 b3
       -2.8598213e-06 1.3534267e-15 0.00011073594 -9.768252e-08
0001b0 a3 41 37 b5 75 34 02 80 c4 37 76 38 76 d4 15 b8
       -6.8268326e-07 -2.02489e-40 5.8702906e-05 -3.5722238e-05
0001c0 3e e1 1c b6 e2 d4 0a 33 77 07 d4 b6 30 36 7c 99
       -2.337692e-06 3.2324245e-08 -6.3189614e-06 -1.3039038e-23
0001d0 09 e0 8f b4 68 53 89 b8 4b 5b 7d b8 49 96 8b 37
       -2.6798833e-07 -6.548205e-05 -6.0404924e-05 1.6640073e-05
0001e0 ae 0e d6 b8 af a9 9b 38 9d 48 9f b9 14 f2 23 b8
       -0.000102070495 7.422582e-05 -0.00030380944 -3.908768e-05
0001f0 99 b3 b5 b5 f1 c4 1b 26 43 b0 e6 b8 ff 18 30 ad
       -1.3537821e-06 5.4043333e-16 -0.00011000086 -1.0009992e-11
000200 ae 83 db bd 72 84 e2 bb cb 7e 0b 3d f6 d8 47 3f
       -0.10718475 -0.0069127614 0.034056466 0.7806543
000210 62 7a 1e 3d 1c 4c b8 a2 65 db b4 3d fa 15 e5 3e
       0.038690932 -4.9953884e-18 0.08830909 0.4474333
000220 36 d4 18 bf 8b cc fb 3d 67 8f 38 23 e7 f1 86 3c
       -0.5969881 0.12294873 1.0005027e-17 0.01647277
000230 88 00 3a 3e fe 5e ea be 88 e5 e2 be 4a 6a 8b b9
       0.18164265 -0.45775598 -0.44315743 -0.00026591338
000240 da 23 a8 bd 9a f8 3d 3f 9b 20 1f 3e 0c a3 8e bb
       -0.08209963 0.7420746 0.15539782 -0.004352933
000250 b4 f3 8b 3e 1a fd a7 3e 3e 67 cf 3e 4d 4a b2 bd
       0.27334368 0.3281029 0.40508455 -0.08705578
000260 30 9f 19 3e cb 32 bd 3e 85 5a 55 3f 5a 3e 65 be
       0.15002131 0.36952814 0.83341247 -0.22387066
000270 70 4c f2 bd e1 8f fb 3b 33 c7 81 25 17 f5 65 2a
       -0.118309855 0.007677064 2.2512915e-16 2.0424318e-13
000280 38 59 97 3d 1f e0 c5 3e e6 a2 1a 3d 46 8a 06 3f
       0.07390064 0.38647553 0.03775301 0.5255474
000290 70 b9 3a be d9 1b f6 3e 68 7f a5 3d 36 f6 6c 3e
       -0.18234801 0.4806812 0.080809414 0.23140797
0002a0 ac 0a 7a 3e 0c ec a7 b5 74 52 09 3e 44 f2 c2 3e
       0.24418133 -1.2511168e-06 0.1341036 0.3807546
0002b0 02 ad 5b 3e 74 d9 91 28 12 ee 21 bf a2 e8 41 3f
       0.21452716 1.6192539e-14 -0.6325389 0.75745595
0002c0 bd ef a0 3e 87 2a 23 bd b3 88 c6 3d f8 66 c9 3b
       0.31432906 -0.03983548 0.09694042 0.006146308
0002d0 4c 71 06 bf a8 57 05 3f 45 4e e6 be 7e c3 ae be
       -0.5251663 0.5208688 -0.4498159 -0.34133524
0002e0 27 24 14 3f f8 3f 97 3c d8 b7 81 bf 12 bc 9b 3e
       0.57867664 0.01846312 -1.013423 0.30416924
0002f0 59 d5 dd 3e cf 25 0d 39 ee 7b c9 bd 7b b2 9d b8
       0.43326834 0.00013460893 -0.09838091 -7.519588e-05
000300 d7 af 85 be 26 eb 96 ba 5f 94 5c bc 55 95 cc bd
       -0.26110718 -0.0011514171 -0.013463109 -0.0998942
000310 33 66 51 3d b4 51 47 ad 34 2e 4e bd 1b 33 67 bf
       0.051122855 -1.1329982e-11 -0.05033703 -0.90312356
000320 28 03 b7 3d 14 ca a0 3d 5c ec 43 12 5e 4b 2b 3c
       0.08936149 0.07851043 6.1822486e-28 0.010454981
000330 12 4f 89 bd b0 75 69 be 51 07 6d 3e 86 da 1b b9
       -0.067045346 -0.227988 0.23147322 -0.00014863358
000340 86 f1 75 be c3 62 c4 bd 89 85 11 bf 87 f8 61 bc
       -0.24017915 -0.0958915 -0.56844383 -0.013792164
000350 91 e4 88 3e 93 32 a6 be cf 47 b7 be d7 a4 d8 be
       0.26736882 -0.3246046 -0.35796973 -0.42313263
000360 0f ed 1d be cb 28 ab 3d 16 c3 1b bf a8 4a 3d bd
       -0.15422462 0.0835739 -0.6084455 -0.046213776
000370 72 90 96 3e be 06 01 bc 71 3d 1c 9b f8 61 ac 13
       0.29407078 -0.007875143 -1.292387e-22 4.351551e-27
000380 53 30 96 3e 5b 45 e6 3e 04 80 ce 3d 08 68 95 bf
       0.29333743 0.4497479 0.10083011 -1.1672373
000390 12 e1 fd bd 76 86 9d bd 16 42 fb 3d e4 98 4b be
       -0.123964444 -0.07691662 0.12268464 -0.19882542
0003a0 0c f3 c5 bd 9d f3 7f b2 3f 37 f6 be e5 52 63 be
       -0.09665498 -1.4898345e-08 -0.48089024 -0.2219959
0003b0 fd cc 83 3c 07 b7 c7 99 e0 4c 00 3f 2c 67 70 be
       0.016088957 -2.0650042e-23 0.501173 -0.23476857
0003c0 a7 20 12 bf 9e b7 f5 bb 69 46 fe 3e 50 38 81 b5
       -0.57081074 -0.0074986955 0.49663094 -9.627638e-07
0003d0 48 6f c6 bd 36 1e 5d bf 00 96 47 3f b4 ee 0c be
       -0.09689194 -0.86374223 0.77963257 -0.13762933
0003e0 79 dd 38 be 49 92 56 3e 9c 27 4b 3f 68 7d 56 bc
       -0.18053235 0.20954241 0.79357314 -0.013091423
0003f0 40 9a 9d bd 8c e7 89 37 22 c0 07 bf 78 15 d4 3a
       -0.076954365 1.6439495e-05 -0.53027546 0.0016180715

layer2.0.bias f4 [32]
000000 32 23 47 b9 93 1e 6f b4 e6 04 d0 b9 18 37 46 b9
       -0.0001899123 -2.2269732e-07 -0.000396765 -0.00018903275
000010 12 0f 94 b9 f7 90 64 39 4a 73 19 b9 a8 d1 a8 37
       -0.00028239988 0.00021797778 -0.00014634166 2.012479e-05
000020 d6 2a df 38 6c 9e 71 b8 95 cd f0 38 e2 17 b2 38
       0.000106414474 -5.760642e-05 0.000114823844 8.49215e-05
000030 5b 1d ea 38 78 7f 26 38 c7 bf d0 b7 76 29 06 39
       0.000111634574 3.96962e-05 -2.4884836e-05 0.00012794681
000040 8b 82 ae 39 69 0d c4 b8 f8 a6 81 39 78 8d 16 b8
       0.00033285128 -9.348506e-05 0.000247292 -3.589454e-05
000050 56 46 94 b9 d2 f6 a9 b9 7e a6 84 b6 10 c7 26 38
       -0.00028281164 -0.00032418087 -3.953289e-06 3.9762876e-05
000060 c3 c7 ac 38 5e e3 88 2d c4 b9 96 38 3e 96 cb b8
       8.238808e-05 1.5562381e-11 7.187159e-05 -9.707779e-05
000070 3e 4f af b5 24 a0 2b 39 3f 60 8c b8 b8 18 05 38
       -1.3061579e-06 0.00016367488 -6.6936474e-05 3.1732692e-05

layer2.1.weight f4 [32]
000000 74 8f 63 3f f4 53 a1 3b 28 27 7f 3f a0 ce 80 3f
       0.8889077 0.004923338 0.9966912 1.0063057
000010 1b 66 51 3f 59 b1 37 3f 8a ee 99 3f 1c 2e ac 3f
       0.81796426 0.71754986 1.2025921 1.3451571
000020 44 6b 8a 3f 02 8e 15 3f ba 70 14 3f 95 2f 3e 3f
       1.0813985 0.5841981 0.5798451 0.74291354
000030 2e 40 98 3f 40 8d 68 3f 49 e8 77 3e f4 57 83 3f
       1.1894586 0.9084053 0.24209704 1.0261216
000040 03 96 1e 3f 06 9d 8e 3f 31 f7 04 3f ef 74 83 3f
       0.6194765 1.114167 0.51939684 1.027006
000050 62 2b 29 3e d2 0b fc 3e 53 78 01 3e e6 ff 5e 3f
       0.16520455 0.49227768 0.12643556 0.8710922
000060 49 d1 77 3f 09 21 b3 38 5b 2b 9b 3f 10 62 69 3f
       0.9680372 8.5415384e-05 1.2122606 0.91165257
000070 57 c7 12 3b 8e 77 39 3f b0 d0 85 3f ad 14 6e 3f
       0.0022396648 0.7244805 1.0454311 0.930003

layer2.1.bias f4 [32]
000000 40 a7 2a be b8 69 5d bc 8b fe 9c 3e e0 c9 5a bd
       -0.16665363 -0.013513975 0.3066295 -0.05341518
000010 ff 0b 9e be cc d1 89 3d 62 6c 7e be 83 23 07 be
       -0.30868527 0.06729469 -0.24846032 -0.1319714
000020 2e 4e 55 be 94 75 94 be bb 9d 25 3e 73 92 5b be
       -0.20830604 -0.28995955 0.1617345 -0.21442585
000030 03 e6 09 bf b3 9d 05 bf 89 6b 52 bc 89 e7 d9 bd
       -0.53866595 -0.52193755 -0.012843021 -0.10639865
000040 bf 7f c8 bd e2 9e b0 3e 3a 0d 68 3d 79 cc 12 3e
       -0.09789991 0.34496218 0.05665324 0.14335813
000050 08 3b 8d be cc 87 8b be 3b 9c 5b be f4 19 78 be
       -0.275841 -0.27252042 -0.21446316 -0.2422865
000060 06 db 82 be b4 ca ca b9 c6 3d 16 3e 91 43 c6 bd
       -0.25557727 -0.00038679468 0.14672002 -0.09680856
000070 6c c2 9a bb 83 1b 92 bd e2 ed 74 be 29 2e f0 be
       -0.004722884 -0.07134154 -0.2391887 -0.46910217

layer2.1.running_mean f4 [32]
000000 31 cc 46 3c c6 22 16 ba 5c f0 c9 3e 1d 7f 81 bf
       0.012133644 -0.00057272275 0.39441192 -1.0116917
000010 9f 8f c5 bd 84 6c 86 3f 16 dd 87 3f e0 8f 4b 3f
       -0.09646534 1.0501866 1.0614345 0.7951641
000020 fa b5 21 40 51 71 92 3e 27 93 57 3f 8a 35 0e be
       2.526732 0.2860208 0.8420891 -0.13887611
000030 22 5b 77 3f 1c e2 39 3f d4 5a d8 be b8 59 89 bf
       0.9662343 0.7261064 -0.42256796 -1.0730505
000040 79 80 63 bf a4 8a 19 bf 66 2c c7 3d 9b 7e 72 3d
       -0.8886791 -0.59977174 0.09725265 0.05920277
000050 5f 89 51 bb af 42 10 bf 22 cd 82 bd 28 35 90 bd
       -0.0031972749 -0.5635175 -0.06386782 -0.07041389
000060 6f 9c ec be b0 3d d1 b1 78 6f 93 bd c0 b6 22 3e
       -0.462131 -6.0897136e-09 -0.07198995 0.15890026
000070 a9 7e 3d 35 56 74 5d 3f fc b0 29 bf c7 82 45 3f
       7.05923e-07 0.8650564 -0.6628568 0.77152675

layer2.1.running_var f4 [32]
000000 85 51 dd 3f 32 3c 0b 35 4d 54 90 40 56 81 35 40
       1.7290503 5.186913e-07 4.5102906 2.836019
000010 99 e8 dc 3f b1 01 1e 40 d8 e5 90 40 d0 71 c8 40
       1.7258483 2.4688532 4.528057 6.263893
000020 e8 15 7b 40 51 a5 cf 3f de 72 e1 3f d8 fd fb 3f
       3.923212 1.6222326 1.761318 1.9686842
000030 62 dc 40 40 cc 20 00 40 ca e6 37 3f 33 10 08 40
       3.013451 2.0020018 0.7183653 2.1259887
000040 d8 35 76 3f d0 f1 7f 40 45 1d d9 3f 3a 99 4e 40
       0.9617591 3.999134 1.6962057 3.2281022
000050 b1 92 68 3d 77 eb 7e 3f e1 14 da 3d b0 be dc 3f
       0.05678052 0.9957804 0.106485136 1.7245693
000060 bd 49 17 40 b3 d4 27 25 dc 19 4d 40 8c ae 20 40
       2.3638756 1.4557006e-16 3.2047033 2.5106535
000070 4f 44 29 2b 87 47 09 40 27 5f 25 40 f4 24 0e 40
       6.013566e-13 2.1449907 2.5839326 2.2210054

layer3.0.weight f4 [16, 32]
000000 74 e8 97 be ec 0e ac 3b 9c fd d7 3e b9 b4 73 3e
       -0.29669535 0.0052508023 0.42185676 0.23799409
000010 d0 0e ea 3e 01 b1 63 bf 32 25 2e bf 7d 50 97 3e
       0.45714426 -0.8894196 -0.68025506 0.29553595
000020 28 a6 99 be 85 b4 b8 be be 5e 21 bf 16 35 76 bc
       -0.3000958 -0.36075225 -0.6303519 -0.015027305
000030 3a ad cc bd 74 0b 7f be d5 d4 85 3e a9 ac 85 3c
       -0.09993978 -0.24906713 0.2613894 0.016317682
000040 09 a0 a0 3e 47 83 b0 3f 86 83 8f be 4c 00 44 3d
       0.31372097 1.3790063 -0.28030032 0.047851846
000050 5f 1d 86 3d 7e 38 f4 3e 38 52 fb 3d e8 8f 27 3f
       0.06548571 0.4769935 0.12271541 0.6545396
000060 ff 33 bc 3e 40 e3 99 b5 5e 5f 2c 3e bf 36 2e 3e
       0.3675842 -1.1465527e-06 0.16833255 0.17013071
000070 97 59 f8 b8 4f fc 4a 3e d7 a9 1d 3f 1c d1 44 3d
       -0.00011842249 0.1982281 0.6158728 0.048050985
000080 58 ad 0d 3f e2 4c a0 39 e3 43 87 3e 9c bb 9b bd
       0.55342627 0.0003057486 0.2641898 -0.07604143
000090 87 d4 b1 be 17 1c f2 bd 11 ca b8 bc dd 50 98 3d
       -0.34732458 -0.11821764 -0.02255729 0.074372984
0000a0 c4 69 76 be c2 3a 14 3f c3 36 c9 3c 0f fc de bd
       -0.24063784 0.5790216 0.024562245 -0.1088792
0000b0 aa fb 13 bd c8 f2 84 be 4e 30 c7 bd 39 60 f0 3e
       -0.036128677 -0.25966477 -0.0972601 0.46948412
0000c0 31 01 ba bd 52 a5 a1 bd 06 b5 a9 bd cc 6e 3c 3e
       -0.090822585 -0.078928605 -0.082864806 0.1840164
0000d0 0b 89 09 bd 65 e4 78 3d eb e5 27 bd 17 2f 6b bd
       -0.03357796 0.06076469 -0.04099075 -0.057417955
0000e0 e8 6e 1b 3e 53 b3 d9 ad 4b 37 b9 3f db 8f 4a 3e
       0.15179026 -2.474968e-11 1.4469999 0.19781439
0000f0 bf e9 01 34 24 a2 29 be 68 19 30 3e 38 92 38 be
       1.2099098e-07 -0.16565758 0.17197192 -0.18024528
000100 54 9b 13 3e 46 24 96 b7 1f 05 ad be 2a 6a 98 be
       0.14414722 -1.7898285e-05 -0.3379297 -0.29768497
000110 24 23 4c 3e 4e 98 f2 3e 0c d1 6f 3e 7a c0 5c be
       0.1993528 0.47381824 0.23419589 -0.21557799
000120 0e 6e a4 bd d9 1c 47 bd ba 1d d6 bd 0e f7 5f be
       -0.08028804 -0.048611496 -0.10454889 -0.21871588
000130 28 02 1a bd a1 c3 3e 3e 18 b9 1a 3e 63 c4 db 3e
       -0.037599713 0.18629314 0.1510967 0.4292327
000140 ac 17 d4 bd b0 2c 69 be ab f0 81 3e 41 9f b5 3f
       -0.103560776 -0.22770953 0.25378928 1.4189225
000150 c4 a2 2a bd 24 6c a4 bd 88 e9 c0 3c 16 db 2c be
       -0.04165913 -0.08028439 0.023548856 -0.1688045
000160 d3 42 08 3f d1 8e b0 2f 69 13 f0 be 04 63 5a be
       0.53226966 3.211569e-10 -0.4688981 -0.21326834
000170 e1 06 e3 34 5d 8f 84 3d 4f 9b 48 be 6b 0c 38 3d
       4.228705e-07 0.06472657 -0.19590496 0.044933718
000180 ee a8 40 bd 83 2e 07 39 ca 36 7a bb da bc c1 3c
       -0.047036104 0.0001289193 -0.003817963 0.023649622
000190 ca be 9f 3e b8 b1 6e 3c 1f 3c 82 3f 08 67 61 bd
       0.31200248 0.014568739 1.0174598 -0.0550299
0001a0 b1 65 5d 3e 45 ab 74 3e fc 48 92 3e 1c 75 37 3e
       0.21620823 0.23893459 0.28571308 0.17915767
0001b0 91 a6 35 3e 55 0e 30 bf a9 a4 81 bd 14 28 c5 be
       0.17739321 -0.6877187 -0.063302346 -0.3850714
0001c0 af da 0a bd 0b 90 24 3f b8 d9 41 3f 84 53 8a 3e
       -0.03389996 0.6428229 0.7572284 0.27016842
0001d0 51 79 8a bc 87 98 30 3d 5c 7e 6d bd 3b 53 ef be
       -0.016903551 0.04311421 -0.057981834 -0.46743187
0001e0 cc 38 5b 3f eb b6 c0 2e 05 79 84 3e a5 ae 09 bf
       0.8563354 8.763642e-11 0.2587358 -0.5378211
0001f0 fc ea d0 37 be a6 63 bd e5 f2 88 be 57 80 bc 3e
       2.4904955e-05 -0.05557894 -0.26747814 0.36816666
000200 dc 10 9e be d2 1a 76 3a 5c 0a f6 bd a9 63 2c 3e
       -0.30872238 0.0009388152 -0.12013695 0.16834892
000210 2d f5 9f 3e 82 fe e9 3e 88 64 88 3e d5 c5 c4 3f
       0.31241742 0.45701987 0.266392 1.5372874
000220 4d 16 96 bd c6 c3 95 3a be 63 77 be d6 24 29 bd
       -0.07328472 0.0011426143 -0.24159142 -0.041294895
000230 4a 44 13 bf 86 eb c5 3e 08 19 79 3d db 3f 9f be
       -0.57526076 0.38656253 0.060814887 -0.31103405
000240 2d ce f6 be 6d 17 48 3e 69 f8 5b 3c 58 9c 38 be
       -0.48204175 0.19540186 0.013425925 -0.1802839
000250 46 11 34 bd 8e 07 b6 3d 07 d3 9c 3d 7e 01 a4 be
       -0.043961786 0.0888816 0.07657438 -0.32032388
000260 28 76 06 bd d9 ee 34 32 eb 95 67 3e 1d e6 c0 bd
       -0.032827526 1.0531687e-08 0.22615783 -0.094188906
000270 da ff e7 b4 be 5b 04 bf 65 f0 33 bf 80 bc e4 3e
       -4.321326e-07 -0.5170249 -0.7028869 0.44675064
000280 2e 74 a7 bd 01 a8 58 3a 47 43 83 be 60 ab 6a 3e
       -0.081764564 0.00082647806 -0.25637266 0.22916937
000290 a5 ad ca be 5b aa cd be f9 d0 89 be 3f 83 92 3c
       -0.39585605 -0.40169033 -0.26917246 0.017884849
0002a0 ed 06 48 3e b4 4b 9c be 37 e3 b0 3e a4 87 0c 3f
       0.19533892 -0.30526507 0.3454835 0.5489447
0002b0 4e fb a7 bd 9e ea ee be c1 4c 3f bd 79 be db bd
       -0.082022294 -0.46663374 -0.046704058 -0.10729689
0002c0 56 7d be 3e 80 2b ae bd 7b 36 45 3e ab b9 6a bd
       0.37205 -0.08504391 0.19259064 -0.057305973
0002d0 6d f9 90 ba 87 fc 83 3e 25 4d 41 3c f3 9d ab 3c
       -0.0011060663 0.257786 0.011798178 0.02094934
0002e0 08 fe 9c bd 8b 37 86 b1 1c 8d 86 3e 37 0b b4 bc
       -0.0766564 -3.906228e-09 0.26279533 -0.021978004
0002f0 57 29 89 34 ef 8c 80 be 84 92 9e 3f a4 b6 4c bf
       2.5548317e-07 -0.25107524 1.2388463 -0.7996619
000300 48 1c c0 be 41 f3 3a 3a 93 93 60 3f f8 5e 19 bd
       -0.37521577 0.00071315846 0.8772518 -0.037444085
000310 d0 0b 43 bf 32 47 b9 be 56 72 97 be d3 df 3b bd
       -0.761899 -0.3618713 -0.2957942 -0.045867752
000320 03 48 95 3d b5 3e 4a be 58 b7 55 be 78 fe d9 bd
       0.07289126 -0.19750483 -0.20870721 -0.10644239
000330 96 fb 17 be da 35 cc 3e 72 9a c1 3c 2a 97 29 3e
       -0.14842066 0.39884835 0.023633216 0.16561571
000340 ef 75 bb 3e 5f 75 c2 be 4e 5e cf be 04 f8 ff 3d
       0.36613414 -0.37980172 -0.40501636 0.12498477
000350 07 7d 97 3d 36 b1 b8 3d 1c a5 e0 bc 50 a8 43 3e
       0.07396894 0.09018175 -0.02742248 0.19107175
000360 20 40 4b 3e 22 a9 c8 2d 79 cb 0c 3f 95 0a cf 3e
       0.1984868 2.2812478e-11 0.54997975 0.4043776
000370 e0 5d f6 31 ea 10 d1 be 60 2c 1b bd c9 d4 ef be
       7.1702146e-09 -0.40833217 -0.037884116 -0.4684203
000380 6e 7c 92 be 99 c4 dd b8 9a b6 22 bd 15 92 07 be
       -0.28610557 -0.0001057472 -0.039724924 -0.1323932
000390 e0 e7 a8 be 29 44 66 3e b6 2f b8 be 19 41 10 bf
       -0.32989407 0.22486939 -0.359739 -0.5634933
0003a0 75 61 a2 3e 6d 50 10 bf 30 e0 1f 3e c9 a2 0f 3e
       0.3171498 -0.5637272 0.15612864 0.14026941
0003b0 c0 01 cc be 22 cc 71 3f d4 df 35 be b1 29 80 bd
       -0.39845085 0.94452107 -0.17761165 -0.06257952
0003c0 3a dd c7 3e e3 c1 47 bf 8f b4 b5 3c 53 0f f7 3c
       0.3903597 -0.7803022 0.022180824 0.030158674
0003d0 bd 24 31 3d cb 1b 9e be 16 0c 8a 3d bf 6a 04 3f
       0.043247927 -0.3088058 0.067405865 0.5172538
0003e0 0b 06 ed 3d c9 31 ca 31 3a 0e 84 bf 66 48 8d 3e
       0.11573418 5.8846337e-09 -1.0316842 0.27594298
0003f0 48 af 55 b7 bd 17 c6 3e 61 c5 93 3c 5d 6b 37 bf
       -1.27366e-05 0.38689986 0.018038454 -0.716482

layer3.0.bias f4 [16]
000000 c0 7d 9e 36 22 2b 1c b8 48 f0 c6 b8 ca 09 f1 38
       4.723406e-06 -3.723347e-05 -9.4861316e-05 0.00011493599
000010 e9 b9 31 b9 31 76 32 39 74 8c 5c 39 0c 85 b8 b8
       -0.00016949292 0.00017019433 0.00021033158 -8.7985856e-05
000020 fa 2b e8 39 78 ed 01 b9 94 ad e7 38 c0 c4 96 38
       0.00044283253 -0.00012390863 0.0001104727 7.189205e-05
000030 e5 c8 fb b9 90 7a c8 b6 24 95 50 39 40 92 95 b7
       -0.0004802413 -5.9747326e-06 0.00019891985 -1.7830287e-05

layer3.1.weight f4 [16]
000000 d1 7b ee 3f 12 02 ed 3f e1 69 c3 3f 68 a5 b5 3f
       1.8631536 1.8516257 1.5266687 1.4191103
000010 38 cf eb 3f d4 30 a7 3f 33 bf b8 3f 89 84 ee 3f
       1.8422613 1.3061776 1.4433349 1.8634197
000020 19 99 d1 3f fd 0f dc 3f 81 96 cf 3f 84 91 cd 3f
       1.6374847 1.7192379 1.6217805 1.6060033
000030 68 05 06 40 cc 95 c6 3f 6e 7d 0b 40 14 b8 d5 3f
       2.09408 1.5514464 2.1795306 1.6696801

layer3.1.bias f4 [16]
000000 17 cd 57 3f 2c 40 26 3f ec 29 a0 3e 9c a7 23 3f
       0.8429732 0.6494167 0.31281984 0.63927627
000010 b4 12 05 3f e7 f5 9c 3e 40 79 99 3e 9b 7b 0a 3f
       0.51981664 0.3065636 0.2997532 0.54094857
000020 5a fc fd 3e 5a 65 36 3f 7d 8a 0e 3f 64 56 ed 3e
       0.4960659 0.712484 0.55680066 0.46354973
000030 9a 11 43 3f c8 95 40 3f 56 47 1a 3f 2f 67 36 3f
       0.7619873 0.7522855 0.602651 0.71251196

layer3.1.running_mean f4 [16]
000000 fa 2c 99 3f eb 31 9a 3f 66 68 80 3e ac a3 9f 3f
       1.1966851 1.2046484 0.2507965 1.2471824
000010 91 1b b6 3e dc a2 11 3e 65 e9 28 3e 84 1f a4 bf
       0.35567906 0.14222282 0.16495283 -1.2822118
000020 3a 38 81 bf 04 2b 8c 3f 9f 56 0d be f0 9a 61 bf
       -1.0095284 1.0950627 -0.13802575 -0.8812704
000030 05 36 17 3e 7e 1e 64 be b2 4e 61 be ef 08 01 bc
       0.147667 -0.22277257 -0.22002676 -0.007875665

layer3.1.running_var f4 [16]
000000 54 a9 1e 40 a9 2b 3f 40 6b d1 37 40 5d ce 18 40
       2.479085 2.9870398 2.8721569 2.3875954
000010 10 51 30 40 7f 0d b6 3f 55 6d e3 3f 0f 26 1d 40
       2.7549477 1.4222869 1.776774 2.455448
000020 06 c8 08 40 bd 0b 38 40 a2 b2 22 40 2d 4e 08 40
       2.1372085 2.8757164 2.542153 2.1297715
000030 40 dc 0a 40 43 77 29 40 68 60 68 40 f4 32 20 40
       2.169693 2.6479042 3.6308842 2.50311

layer4.weight f4 [10, 16]
000000 91 08 32 bf b2 df af 3f 19 04 3e be e0 fa cf be
       -0.6954432 1.3740141 -0.1855625 -0.4062109
000010 06 00 dd be 3e 68 ea be 1d 27 68 3f c6 78 25 bf
       -0.4316408 -0.45782655 0.9068468 -0.6463741
000020 37 b5 45 3d bf fd 26 3f f7 2a 0c 3e 98 1f 86 be
       0.048268523 0.65230936 0.13688265 -0.2619598
000030 0b bd 85 3f 0b a5 3e bf 37 4d 22 bf 93 e8 4e bf
       1.0448316 -0.74470586 -0.6339907 -0.8082363
000040 c0 6d 37 bf 14 ec 00 bf 90 88 7a 3f 95 15 90 be
       -0.7165184 -0.50360227 0.9786463 -0.28141466
000050 2e b5 18 bf 1e 88 bc be f9 9d c5 be 6c 55 68 3f
       -0.5965146 -0.368226 -0.38597086 0.90755343
000060 fe a8 8d 3e f1 d0 61 3f 57 79 13 bf 2d 88 e9 3e
       0.27667993 0.88209444 -0.57607025 0.45611706
000070 a5 41 63 bf 4e 48 5e 3f af 72 90 bf b6 04 98 bc
       -0.8877204 0.8682908 -1.1284999 -0.018556934
000080 75 a3 ff 3d a4 2f fa be 5f 56 54 3f 5c e3 77 3f
       0.12482349 -0.48864472 0.8294429 0.968313
000090 01 a6 94 bf 49 d5 94 bd c0 7b a5 be f5 6d 4c 3e
       -1.161316 -0.072672434 -0.32320976 0.1996382
0000a0 26 e9 d1 be 0d 97 e5 be 2d fa 24 bf 7e 5c 77 bf
       -0.4099819 -0.44841805 -0.6444424 -0.96625507
0000b0 b7 41 91 be 6e 64 0a 3f 97 30 84 3f 13 e3 40 bf
       -0.2837045 0.54059494 1.0327328 -0.7534649
0000c0 90 19 34 bf c8 10 90 bd c4 4e fd 3d 66 6f f0 bd
       -0.70351505 -0.07034451 0.12368539 -0.117399976
0000d0 24 3d 84 3f 69 26 0f bf 74 0d ec bd 8b 85 6d be
       1.0331159 -0.55917984 -0.115260035 -0.23195474
0000e0 44 4b 45 3f 5f 2d 3f bf 99 d3 45 be 0f 6d 72 3f
       0.7706797 -0.74678606 -0.19319 0.9469766
0000f0 3b 00 6e bf 54 fd 14 bf 3f 4a 8f 3f 82 6e 4d bf
       -0.929691 -0.5819905 1.1194533 -0.80246747
000100 c3 f2 56 3f 7d 7c 53 3f 42 10 82 be 9f a6 45 3d
       0.83964175 0.8261183 -0.2540303 0.048254605
000110 66 cf ea be bd e9 80 3f 6c 62 bd 3e 33 5a 40 bf
       -0.45861357 1.0071331 0.36989152 -0.75137633
000120 fd cc 08 bf 06 a8 3d bf 2f 36 f3 be 87 51 5f 3f
       -0.5343779 -0.7408451 -0.47502276 0.87233776
000130 f3 ae 73 bf 39 01 c9 3e 41 d9 37 bf 48 fa 2c bf
       -0.95188826 0.39258745 -0.7181588 -0.675694
000140 9d 2f 6b bf 1f 84 47 be d9 1c 2c be 4b 3a 37 3f
       -0.9186953 -0.19483994 -0.1680788 0.71573323
000150 99 50 63 3f fa 1a 41 be 2f 04 70 be 8e fe 17 bf
       0.8879486 -0.18857947 -0.23439096 -0.59372795
000160 68 67 06 bf fe 63 15 be 75 fe 69 3f 56 b7 98 3d
       -0.52501535 -0.14588925 0.91403896 0.074568436
000170 d3 59 1b bf 84 50 6a bf 23 8f 86 bf 72 a8 96 3f
       -0.60683936 -0.9152911 -1.0512432 1.1770155
000180 87 dd 3d 3e 20 23 81 bd b9 02 54 bf 77 7c 3f 3f
       0.18541537 -0.06305528 -0.82816654 0.74799293
000190 1b f6 2d be 98 8b 15 bf b9 8a 4c bf 00 30 4a bf
       -0.16988413 -0.5841613 -0.79899174 -0.7897949
0001a0 07 16 ee be be bd 05 bf 59 2e 1e 3f b7 0f 5d 3e
       -0.4650118 -0.5224265 0.6178947 0.21588026
0001b0 e5 67 9c 3f 52 69 64 3f ee 77 2e bf 44 76 64 be
       1.2219206 0.89223206 -0.6815175 -0.2231074
0001c0 08 0b 30 bf 44 d3 24 bf 19 02 73 bf 10 a4 50 bf
       -0.6876683 -0.64384866 -0.94925076 -0.8150034
0001d0 54 e8 44 bf 9a af 53 3f 9d 39 bf be 5d da 07 3f
       -0.76917005 0.8268982 -0.37348643 0.5306757
0001e0 20 b0 a4 3f d3 cf 4a bf 58 d4 13 bf 28 b0 13 bf
       1.2866249 -0.79223365 -0.57745886 -0.5769067
0001f0 5e 59 e0 3e 50 d6 8e 3e 94 68 33 3f 13 f8 51 3f
       0.43818182 0.27897882 0.7008145 0.82019156
000200 92 f3 c5 3e f6 ce 84 bf 78 d9 f0 be b7 38 5d bf
       0.38662392 -1.037566 -0.47040915 -0.86414665
000210 a6 e9 e1 be 86 1a 03 be 15 b6 6f 3f dd 85 a2 3f
       -0.44123572 -0.12803087 0.9363721 1.2697102
000220 9f e1 59 bf c4 37 17 be ab d3 82 3f 0f 94 e0 be
       -0.85109895 -0.14767367 1.0220846 -0.4386296
000230 32 9b ff 3e 5b 13 2d bf b4 d5 bb 3e 22 ba 05 3e
       0.49923092 -0.6760766 0.3668648 0.13059285
000240 ba fa ac 3f cd 48 81 3c 9d cc 38 be cf 8e e6 be
       1.3514016 0.015781784 -0.18046804 -0.4503083
000250 f2 4d 23 3f 37 79 37 3e 79 66 cc bc ca 3c 78 bf
       0.6379081 0.17917334 -0.024951207 -0.96967757
000260 b1 06 84 be 9b c5 9e 3f db 20 34 bf 9a b3 68 bf
       -0.25786355 1.2404054 -0.70362633 -0.9089905
000270 16 fc 0d bf 25 db 3f bf ab 42 e5 bc 14 58 d9 3e
       -0.5546278 -0.74943763 -0.027985891 0.4245001

layer4.bias f4 [10]
000000 ad 9e d5 bc 84 d1 62 3e 42 d9 1e 3b 87 13 ba bb
       -0.02607664 0.22150236 0.0024238382 -0.0056785974
000010 2f fa f6 3d 58 07 bf 3e c6 ef 82 be e8 41 7b 3d
       0.120594375 0.3731029 -0.25573558 0.06134215
000020 de 9f 80 be 8e 30 7b be
       -0.2512197 -0.24530241
