作业/作业1/191240076_1_v2/res/one_hidden_mlp.pth (torch, 6539 bytes, 8 tensors)

layer1.0.weight f4 [32, 16]
00000000: ca65 253e bf22 8a3d be45 d3be bb46 49bf
00000010: 32be ac3d 53d4 013e b4f9 db3e a9a3 4ebf
00000020: dd5c 8a3c 5031 b7bd d56a 563e a796 ee3e
00000030: 992f 26bf ff9c ae3e 448e fc3e 8239 1d3d
00000040: c4fa 943e b771 943f c1c2 ddbe 8ac9 a1bf
00000050: 2530 d43e d4a3 84be ba6a 86be d58f 593f
00000060: 263f ac3d 77b1 0e3f 9c31 1bbe d101 95bd
00000070: 7ad5 a3be 4dc1 393f 9146 3ebd 1735 75bf
00000080: 69ab 4abf 011b 8c3f 98ef 7d3e 03ce 463e
00000090: 5063 87be 4938 30be 90c1 7e3e b505 1bbf
000000a0: 4b5f 3e3f b1dd ebbd ad60 45bf 5ec1 823f
000000b0: 2cbc cc3e 1150 953e 1c59 2ebf 5856 25bf
000000c0: d56a 8bbe a8cb 5e3e 55c6 a1be 6c71 1540
000000d0: 7089 573e 34b7 e4bf 6ab3 1c3f 0407 0e3f
000000e0: ca61 7ebd b85c bc3e 46d9 143d 09f8 23bf
000000f0: 38f3 573e fa78 f4be a2f0 40bc 6b8b 0a3f
00000100: 0db7 b9bc 58ae 3bbf 8861 ae3d a920 60be
00000110: 6470 eebd 0efe 35bf ac84 233e c755 2fbf
00000120: 3413 dcbe 70fd 0ebf e853 103c 1bde 1bbe
00000130: cb0e 673e 9bb8 cb3e a405 8abf 70fa b6be
00000140: c3c7 cd3e e3ef f0be cac6 02bf a9b4 6ebe
00000150: 32cd 55be 1144 e23e 83b3 6bbe 0fd3 2a3f
00000160: 0b9c 2b3d c504 023e 2539 34be 8799 00be
00000170: f9eb 5ebc f5f4 82be 49aa bd3e 31ae a93e
00000180: 80a7 2bbf 58f6 53bf 5ca9 b73f 447d 70bf
00000190: 4aaf 25bf fce1 813f adca bebd 8417 f1be
000001a0: 48b4 f43e 2f9c 6dbd 9f39 a33e 2f1c ac3e
000001b0: 3548 9e3e 0995 b73c 0e55 f43e f082 32bf
000001c0: 60aa 7c3d c685 a33d be1d 18be 47fc 60be
000001d0: b405 efbd f6ad e2bc a5a6 76bf dc66 813f
000001e0: 7110 2fbe 1134 823f 969e bb3c b438 c43e
000001f0: e00a 35be c159 c13e 1097 babd 8605 13be
00000200: 1924 74bc fb66 e6bd da7f 663d 09f5 883e
00000210: 7e31 b5be f0bd 843f 532b 2cbf d156 dcbe
00000220: a6cf 353f 4908 2dbf 4137 493e 08de 0a3f
00000230: 24d9 163d 7887 323f 0879 c53e 97d6 97be
00000240: 06ed 00bf 62d2 e6be bc45 943f 38c4 cabd
00000250: 0d97 a33e 6007 c43e cdf5 15bf e1c1 793f
00000260: f2c0 91be 4581 2abf 3e71 bc3c dc6c 483f
00000270: 8ce1 10bd 8474 733f 2884 973e 2501 2a3f
00000280: 8f79 93be 2aa4 77be 4534 193f 15dc 343f
00000290: ed78 45be a9de f23e 363e 38be f895 41bf
000002a0: 3643 a83e ce71 7fbd 686e eb3d 0ca6 d83d
000002b0: ab3f 3a3f d2d0 33bf 4e6c 30bf 0e03 693b
000002c0: b42f 463d a2a3 9abe c008 d5bd b3f5 bdbc
000002d0: 5f49 9abe fbe2 7bbd d0a0 ccbe 352c 6c3e
000002e0: 27b0 d8be 2a3e 7abf 63eb 403e c871 01bf
000002f0: 6838 353f 6371 3dbe 6d78 973c 8979 6d3d
00000300: 914b 073f 14ed 4dbf 2db0 97be a13e 0d3f
00000310: 50ec 923d 531f 88bf 8d13 cfbb c434 6fbe
00000320: a506 4dbd e5c7 0c3f 8461 6f3e e204 bdbe
00000330: 6ae6 6fbe f2d4 c03e b1b5 ac3b 89df 843f
00000340: f777 bd3d 6b3c b6be 76b2 893d b020 c0be
00000350: c129 35bf 7278 213f 1682 123e fedd a73e
00000360: b726 6dbe 05a4 77bf eed6 81bf 3657 81be
00000370: b090 dd3e c636 b3be 9763 8dbf d243 8d3d
00000380: 481f ef3e c00f b5bf 33e0 a93e 2f3c 663f
00000390: b785 0bbf 0d9f 013f 8a39 133f 99ab f6be
000003a0: f74d 293e 1e33 ad3e 135c b0be aa7f a13e
000003b0: 8b92 35be 2e03 94bd 086e e53e 4958 a4bd
000003c0: e6eb 9c3e 21f4 59be 54c2 4fbf c683 833e
000003d0: 602b 973f 5a03 07bf d009 8fbe c4dc 25be
000003e0: 5c33 55bf e21a c5bd 663f a23e 3120 17bf
000003f0: 9a9b 3f3f 499e 133f 2de9 3fbe 6117 80bf
0.1615211 0.067449085 -0.41264147 -0.7862355 0.084347144 0.12678652 0.42963946 -0.80718476
0.016889984 -0.089449525 0.2093919 0.46599314 -0.6491638 0.34104154 0.4932729 0.03838492
0.2909757 1.1597203 -0.43312648 -1.263963 0.4144298 -0.2590624 -0.262533 0.84985095
0.08410482 0.5573954 -0.15155643 -0.07275737 -0.31998807 0.7256058 -0.046454016 -0.95784134
-0.791678 1.0945741 0.24798429 0.19414525 -0.26442957 -0.17208971 0.24878526 -0.60555583
0.74364156 -0.11516894 -0.7710064 1.0215261 0.39987314 0.29162648 -0.6810472 -0.64584875
-0.27229944 0.21757376 -0.31596628 2.3350477 0.21048522 -1.7868409 0.61211264 0.55479455
-0.062104978 0.3678949 0.03634002 -0.64050347 0.21088874 -0.47748548 -0.011776121 0.54118985
-0.022670293 -0.733129 0.08514696 -0.21887459 -0.116425306 -0.7109078 0.15968579 -0.6849026
-0.429834 -0.55855465 0.008809067 -0.15221445 0.22564237 0.3978928 -1.0782971 -0.35737944
0.4019147 -0.4705802 -0.5108458 -0.23311104 -0.20879057 0.44192556 -0.23017697 0.667283
0.04189686 0.12697132 -0.17599924 -0.12558566 -0.013606065 -0.25577512 0.3704398 0.3314071
-0.6705246 -0.82797766 1.4348559 -0.9394114 -0.64720595 1.014709 -0.09316001 -0.47088253
0.47793794 -0.058010276 0.318799 0.33615252 0.30914465 0.022409933 0.47721142 -0.69731045
0.06168592 0.079845 -0.14855096 -0.21971236 -0.1167101 -0.027670842 -0.9634803 1.0109515
-0.17096116 1.017214 0.022902768 0.3832451 -0.1767993 0.3776379 -0.09110844 -0.14357576
-0.0149011845 -0.11250111 0.056274273 0.26749447 -0.35389322 1.0370464 -0.6725361 -0.43034986
0.7101997 -0.6759077 0.19649984 0.5424504 0.036828175 0.6973796 0.38568902 -0.29655907
-0.5036167 -0.45082384 1.1583781 -0.09900707 0.3195118 0.38286877 -0.5857819 0.9756146
-0.28467518 -0.666035 0.023003217 0.78291106 -0.03537135 0.95099664 0.29593015 0.66407996
-0.2880368 -0.24183717 0.5984538 0.7064832 -0.19284411 0.474355 -0.17992482 -0.7561946
0.32863778 -0.062364392 0.11495668 0.10578546 0.727534 -0.7024051 -0.6891526 0.00355548
0.048385337 -0.30202967 -0.104020596 -0.023188448 -0.30134103 -0.061495762 -0.3996644 0.23063739
-0.42321894 -0.97751105 0.18839793 -0.5056424 0.70789194 -0.18500285 0.01849004 0.057977233
0.5284968 -0.8043988 -0.296266 0.5517369 0.07173979 -1.0634559 -0.0063194693 -0.23359972
-0.050055165 0.54992515 0.23377043 -0.36917788 -0.2342774 0.37662464 0.0052706827 1.0380718
0.09251397 -0.3559297 0.06723492 -0.3752494 -0.70766836 0.6307441 0.14307436 0.32786554
-0.231593 -0.9673465 -1.0143716 -0.2526185 0.4327445 -0.35002726 -1.1046017 0.06897701
0.46703553 -1.4145432 0.33178863 0.8993558 -0.5450091 0.5063332 0.5750967 -0.48177794
0.16533647 0.33828062 -0.34445247 0.31542712 -0.17731683 -0.07227169 0.4481051 -0.080246516
0.30648726 -0.21284534 -0.81155896 0.25686473 1.1810112 -0.5273949 -0.27937174 -0.16197497
-0.83281493 -0.09624268 0.31688994 -0.59033495 0.74846804 0.576634 -0.18741293 -1.0007135

layer1.0.bias f4 [32]
00000000: 0e92 a03b edc5 a03b 6af2 a0bb 3d8e a03b
00000010: 097c a03b d08f a03b dbae a03b 7997 a03b
00000020: 4285 a0bb 28c6 a0bb f278 a03b 0087 a0bb
00000030: 1e80 a03b e248 a03b 276c a03b 96ba a03b
00000040: 506c a0bb 9084 a03b 1911 a03b 7c94 a03b
00000050: 9d9a a03b a83a a1bb e497 a03b c481 a03b
00000060: bda2 a03b 2088 a0bb b1a1 a03b 59aa a0bb
00000070: c7b7 a03b b492 a0bb 15b1 a03b 4c97 a03b
0.0049002236 0.004906407 -0.0049117105 0.0048997686 0.0048975986 0.0048999563 0.004903657 0.0049008694
-0.004898698 -0.0049064346 0.0048972303 -0.0048989058 0.0048980853 0.004891501 0.0048957053 0.0049050553
-0.0048957244 0.004898615 0.0048848507 0.004900513 0.004901244 -0.0049203224 0.0049009193 0.004898282
0.0049022124 -0.00489904 0.0049020876 -0.0049031195 0.0049047205 -0.004900301 0.0049039223 0.0049008485

layer1.1.weight f4 [32]
00000000: f71c 0240 ba26 1f40 386a 0640 b82d 1640
00000010: 20ea 1640 441b a53f 60ba 0340 39cb ce3f
00000020: 76f8 f23f b5b9 0440 3abc c73f 6711 f93f
00000030: d190 1040 fadd e23f 10ca cb3f e214 f63f
00000040: d8af 1240 beae e43f 3955 ee3f eeae 2840
00000050: ac64 fd3f 0e2d 1c40 52ea eb3f 037e d53f
00000060: f052 f13f 7408 aa3f 54ef 2a40 2a40 d73f
00000070: 0be1 0840 d2d3 b93f d6f0 1c40 b6d9 1d40
2.0330179 2.4867387 2.100233 2.3465405 2.3580399 1.2898946 2.0582504 1.6155769
1.8982074 2.0738347 1.5604317 1.9458436 2.258839 1.7723992 1.592104 1.9225123
2.2919827 1.7865827 1.8619758 2.6356769 1.9796348 2.44025 1.8430884 1.6679081
1.8853436 1.328383 2.6708574 1.6816456 2.1387355 1.4517767 2.4521995 2.466413

layer1.1.bias f4 [32]
00000000: ab9e c6be b385 aebe 3fba 183f 4a6a 9c3e
00000010: 74d8 a2be 8d92 c7be f26c 4bbd 107f d03d
00000020: 075c a8be d958 fe3e 9aed 1c3e 89fc 613d
00000030: 322c 3d3e 67d8 ddbc 5e61 16bf b3d3 1fbe
00000040: 001e 013f b229 92be 7982 08bf 7d36 3c3f
00000050: 5ffe 00be 8b2f 7ebf 560d 1c3d 5b69 9a3e
00000060: 66f8 f03e 3fce 163d 863a d1bd b1a5 14bd
00000070: 366f 8fbe a774 953e 27fc 9bbf 636f 803f
-0.3879293 -0.3408638 0.5965919 0.30549842 -0.31805766 -0.38978997 -0.049664445 0.10180485
-0.3288271 0.4967716 0.15325013 0.055172477 0.1847389 -0.027080728 -0.5874232 -0.156081
0.504364 -0.28547436 -0.53324085 0.7352064 -0.12597035 -0.99291295 0.038098656 0.30158505
0.47064513 0.036817785 -0.102162406 -0.03629083 -0.28014535 0.2919056 -1.2186326 1.0033993

layer1.1.running_mean f4 [32]
00000000: 954b 33c2 877b 4b41 a0a4 7b42 622e 0343
00000010: acaa 5fc3 1df9 90c1 2e63 dcc1 e1a7 2141
00000020: 2c8a c042 9230 ba42 5497 1742 56e2 b3c2
00000030: f109 2cc2 d18d 38c3 72bc e740 1dd0 2fc2
00000040: 300f d542 bae2 a341 4954 dbc2 e180 15c3
00000050: 065e 43c2 08d8 9143 7294 6842 2b35 ca42
00000060: 6514 d1c1 dcc8 de42 4189 0942 5dfc 10c1
00000070: 9abf 9a42 61cc 4cc2 9d57 44c3 dd10 9142
-44.82381 12.717658 62.910767 131.18118 -223.66669 -18.121637 -27.548428 10.103486
96.26987 93.094864 37.89778 -89.94206 -43.00971 -184.55397 7.2417536 -43.953236
106.52966 20.485706 -109.66462 -149.50343 -48.84182 291.68774 58.144966 101.10384
-26.134958 111.3923 34.384037 -9.061612 77.37422 -51.19959 -196.34224 72.532936

layer1.1.running_var f4 [32]
00000000: de98 3445 be73 1945 e8c3 3145 7da4 c444
00000010: e8f9 5e45 e2e2 8b44 9581 4845 9181 2345
00000020: 156c d444 6d13 5645 8732 2445 26fd 2745
00000030: 93ea 6e45 fb34 0045 7b9f f644 cbcc 0545
00000040: eaca 7245 e283 f044 ef66 c144 be88 bd45
00000050: ad08 6f45 fd6b 8a45 7cfd fb44 b6c3 2a45
00000060: 61ca 1f45 e071 6c45 1916 ac45 7b60 3a45
00000070: 3d5a 9145 d338 2345 02d9 8f45 4220 9945
2889.5542 2455.234 2844.2441 1573.1403 3567.6191 1119.0901 3208.0989 2616.098
1699.3776 3425.214 2627.158 2687.8218 3822.661 2051.3113 1972.9838 2140.7996
3884.6821 1924.1213 1547.2167 6065.093 3824.5422 4429.4985 2015.9214 2732.232
2556.6487 3783.1172 5506.762 2982.03 4651.28 2611.5515 4603.126 4900.032

layer2.weight f4 [10, 32]
00000000: 0fab 4bbe 5135 943f 4301 503f 048e 4b3d
00000010: 5103 753f e4a8 60be fbee e03e eee5 6ebd
00000020: 2668 983f 4688 6abf 9667 a03e 0072 4a3f
00000030: 20b3 653f 9502 25bf 7c3e 10bf cb74 5ebf
00000040: 3c40 e0bf b04f 13bf 67fa 483f 62fe bd3e
00000050: 7171 113f 088b 2ebd 1978 a6bf c6ad 1ebf
00000060: 2a02 b13e 75ee c53e f40b 37bf 1b19 6a3f
00000070: 6845 1d3d 6aec 093f ec15 47bf 34c4 8bbf
00000080: 6477 18bf f06e 1f3f 027a a2be 1733 d6bf
00000090: 28be 1f3e d792 ba3e 51ea 803f 072e 113f
000000a0: 65bd 63bf b8ec 51be 2e94 903e d470 a13e
000000b0: 7217 21bf a40f 783f f5b8 193b bb2c b6bf
000000c0: 02a2 80be 976b 84bf 88bc 80bf b9bf 2c3f
000000d0: cfe1 833e 620a 93bf 262f 1dbf 54f2 b43e
000000e0: 8941 3d3f f761 303f f24b f1be c5c7 00be
000000f0: 5422 bfbf ec27 873e 147d 993f dfbe 613f
00000100: d802 56be d959 81bf 0523 65bf 7f7a 923c
00000110: c361 88bd 79f0 ea3e 1e23 32bf 1927 b6bf
00000120: a809 2ebf 31c3 47bf 0029 6bbf 1038 7c3e
00000130: 867e 1cbd 1121 7cbe 125a 9c3d ac89 9f3f
00000140: 3265 dabe f5a9 24bf a792 0ebf b95a a83f
00000150: 8e8d 19bf fab2 d3be d047 e33e 9e97 24be
00000160: 90f9 a1bf c72b d6be 3419 1e3f 8b6d 07bf
00000170: ca6c 5fbd 899c 423f d5a8 b8bf 8d24 433f
00000180: 9f43 9abd 6e57 bfbf 0ad2 5a3e 2734 c93d
00000190: 75fd 3fbf 59ed 3d3e 7533 8ebf 9d8d 5dbf
000001a0: e886 27be f53a e9bf b2a3 883f 5d48 a2bf
000001b0: df5f bbbe bb95 66bf aced 033e a94d 813e
000001c0: a05f ecbb 3d68 133f f09c 1d3f efe9 e33d
000001d0: 499d 4f3f b3e5 8ebe 9198 143f 0aa3 94bc
000001e0: b1cd c63e 5a48 ee3e 0c72 763f efd5 adbf
000001f0: d306 2e3e 66ea 46be f07e 47be 85a1 473f
00000200: 62bb e73e da57 7f3f 9061 853f 8035 cebe
00000210: 660e 9dbf d113 95bf 37b3 103f 8002 f03e
00000220: 8c92 783f cf6f 0fbe 7525 d2be 3560 533f
00000230: 6cb1 82bf 73d6 1abf 056c adbe 0dd8 393e
00000240: a046 743f e80d 113e 9a1c 02be 7fca 473f
00000250: e8d7 84be 3c4e c6bf 12e6 87be c14f 7ebf
00000260: 4e22 45bf 2e1e 033e 05e3 28bf d7ea 46be
00000270: daca fa3e 763b f7be 29c0 d2be 73b7 21bf
00000280: d16f 8a3f 92e4 69bf 71d1 86bf b6e0 9dbf
00000290: 25b0 46bf cb76 a7be 3148 13bf 0209 353e
000002a0: f1bd 65bf 252e 863f 0e57 123f a040 37bf
000002b0: 10b5 923f 55dd 593d f9cc 43bf 1e6d d8be
000002c0: ad0b f13e 0303 563f 8cc1 cdbe c893 f23c
000002d0: 7404 713e 5c66 c13f 114a cd3e 26ed 19be
000002e0: d36f 61bf 3d84 6cbf 0b1a d73e a9f9 dc3e
000002f0: 6231 113f 0960 813d 8043 9a3f b831 68be
00000300: 13d8 703f b283 1abf e7f7 253e 011d 6cbf
00000310: 4c7e 8f3f 7d7a 5cbe 1a23 c2be 98ac c0be
00000320: e81c a83e 6efb 133e fb65 4b3d d83b 1e3f
00000330: 799a c4be 2378 da3e 9a15 10bf 4718 2c3e
00000340: 0706 803e 4a3c aebe 4e6d 383f df23 58bf
00000350: 405f 7bbf ea33 1d3e c5cc c93e a76c 4c3e
00000360: 6efc aebe 56e3 74be 59b6 933f f434 3cbd
00000370: c072 26be 36c8 20bd 8dd6 323f d19e 5bbf
00000380: 9419 9bbf 9565 693e 3f81 233f 7924 173f
00000390: f292 e73e 18cc 1b3d 00c5 86bf e293 963d
000003a0: 8788 8ebe c776 f93e 9194 46bf acf8 903c
000003b0: 3be4 88bf bfb7 5abf 866b afbd 95ca d7bd
000003c0: e29d 0f3f e71b abbe 558d d7be 8030 0ac0
000003d0: 62b9 c2bf beff 433f bc40 e13e 6225 9a3f
000003e0: c75a 93be 69e5 053f e5c1 653f 6862 503f
000003f0: cc63 1abf 09b2 493e 691c 56be 040f 4c3f
-0.19889472 1.1578771 0.81251925 0.049695984 0.95708185 -0.21939427 0.43932328 -0.058324747
1.1906784 -0.91614187 0.3132903 0.790802 0.8972645 -0.64457065 -0.56345344 -0.8689696
-1.7519603 -0.5754347 0.78507084 0.3710814 0.5681372 -0.04261306 -1.3005401 -0.6198391
0.34571964 0.3865849 -0.71502614 0.9144456 0.03839627 0.53876364 -0.77767825 -1.0919251
-0.59557176 0.6227865 -0.3173371 -1.6734341 0.15599883 0.36440155 1.0071508 0.5671086
-0.8896087 -0.20500457 0.28238052 0.31531394 -0.629264 0.96898866 0.002345619 -1.4232401
-0.25123602 -1.0345334 -1.0057535 0.67480046 0.25758216 -1.1487544 -0.6140007 0.35341132
0.73928124 0.6889948 -0.47128254 -0.12576206 -1.4932351 0.26397645 1.1991296 0.8818187
-0.20899522 -1.0105544 -0.8950656 0.017880676 -0.066592716 0.4588659 -0.69584835 -1.4230682
-0.67983484 -0.78032213 -0.91859436 0.24630761 -0.0382066 -0.24621989 0.07634367 1.2463889
-0.4265533 -0.64321834 -0.55692524 1.3152686 -0.5998162 -0.41347486 0.44390726 -0.16073462
-1.2654285 -0.41830274 0.61757207 -0.52901524 -0.05454711 0.76020104 -1.4426523 0.7622765
-0.07532429 -1.4948556 0.21369186 0.098244004 -0.7499612 0.18547572 -1.1109453 -0.8654421
-0.16360056 -1.8221117 1.0674956 -1.2678334 -0.3659658 -0.9007222 0.12883633 0.25254562
-0.007213548 0.5758093 0.6156759 0.11128604 0.81099373 -0.27909622 0.580453 -0.01814415
0.38828805 0.46539575 0.9626777 -1.3580912 0.1699479 -0.19425353 -0.19482017 0.77980834
0.4526015 0.99743426 1.0420399 -0.40275192 -1.2270019 -1.1646672 0.5652346 0.46876907
0.9709861 -0.14007495 -0.41044202 0.82568675 -1.0210395 -0.60483474 -0.33871475 0.18148823
0.95420265 0.14165461 -0.12706223 0.7804336 -0.25945973 -1.5492625 -0.26542717 -0.99340445
-0.7700547 0.12804481 -0.65971404 -0.19425522 0.48982888 -0.48287553 -0.41162232 -0.63170546
1.0815374 -0.91364396 -1.0532666 -1.2334201 -0.77612525 -0.3270782 -0.5753203 0.17679217
-0.8974295 1.0482832 0.57164085 -0.71582985 1.1461506 0.053189594 -0.7648464 -0.4227075
0.4707922 0.83598346 -0.40186727 0.029611483 0.23536855 1.5109363 0.4009557 -0.15031871
-0.88061255 -0.9238928 0.42012057 0.43159226 0.5671598 0.063171454 1.2051849 -0.22675216
0.94079703 -0.603572 0.16207848 -0.92231756 1.1210418 -0.215311 -0.37917405 -0.3763168
0.32834554 0.14451382 0.049657803 0.61810064 -0.38399103 0.42669782 -0.5628296 0.16806136
0.25004598 -0.34030372 0.72041786 -0.84429735 -0.98192215 0.15351835 0.3941404 0.19963323
-0.34176964 -0.23914847 1.1540023 -0.045948938 -0.16254711 -0.039253436 0.6985863 -0.8578921
-1.2117181 0.22792657 0.6386909 0.5904003 0.45229298 0.038036436 -1.052887 0.07352425
-0.27838537 0.48723432 -0.77570444 0.017696701 -1.069465 -0.85436624 -0.0856543 -0.10536686
0.56100285 -0.33419725 -0.42100015 -2.1592102 -1.5212824 0.76562107 0.439947 1.2042658
-0.28780195 0.5230318 0.89748985 0.81400156 -0.6030853 0.19696821 -0.20909275 0.7971041

layer2.bias f4 [10]
00000000: 4325 9dbe 0954 803e 60ef 773d 140a e6bc
00000010: 88e7 723e 9a5b acbe 3f52 2abe f8d1 cd3d
00000020: 5b59 903d e85e 8dbd
-0.3069249 0.25064114 0.06053102 -0.028080977 0.23721135 -0.33663636 -0.16632937 0.10049814
0.07048293 -0.069028676
